…
classes:       9
# each class   3000
train_val_test:[0.8, 0.1, 0.1]
epochs:        100
batchsize:     512
lr:            0.001
use_fts_bn:    True
conv_params:   [(7, (32, 32, 32)), (7, (64, 64, 64))]
fc_params:     [(128, 0.1)]
use_counts     True
use_fusion     False
        
TensorBoard log path is /hpcfs/cepc/higgsgpu/wuzuofei/My_Net/ParticleNet/output/log_tensorboard/log_gpu
----------------------------------------------------------------
        Layer (type)               Output Shape         Param #
================================================================
       BatchNorm1d-1               [-1, 6, 200]              12
            Conv2d-2           [-1, 32, 200, 7]             384
       BatchNorm2d-3           [-1, 32, 200, 7]              64
              ReLU-4           [-1, 32, 200, 7]               0
            Conv2d-5           [-1, 32, 200, 7]           1,024
       BatchNorm2d-6           [-1, 32, 200, 7]              64
              ReLU-7           [-1, 32, 200, 7]               0
            Conv2d-8           [-1, 32, 200, 7]           1,024
       BatchNorm2d-9           [-1, 32, 200, 7]              64
             ReLU-10           [-1, 32, 200, 7]               0
           Conv1d-11              [-1, 32, 200]             192
      BatchNorm1d-12              [-1, 32, 200]              64
             ReLU-13              [-1, 32, 200]               0
    EdgeConvBlock-14              [-1, 32, 200]               0
           Conv2d-15           [-1, 64, 200, 7]           4,096
      BatchNorm2d-16           [-1, 64, 200, 7]             128
             ReLU-17           [-1, 64, 200, 7]               0
           Conv2d-18           [-1, 64, 200, 7]           4,096
      BatchNorm2d-19           [-1, 64, 200, 7]             128
             ReLU-20           [-1, 64, 200, 7]               0
           Conv2d-21           [-1, 64, 200, 7]           4,096
      BatchNorm2d-22           [-1, 64, 200, 7]             128
             ReLU-23           [-1, 64, 200, 7]               0
           Conv1d-24              [-1, 64, 200]           2,048
      BatchNorm1d-25              [-1, 64, 200]             128
             ReLU-26              [-1, 64, 200]               0
    EdgeConvBlock-27              [-1, 64, 200]               0
           Linear-28                  [-1, 128]           8,320
             ReLU-29                  [-1, 128]               0
          Dropout-30                  [-1, 128]               0
           Linear-31                    [-1, 9]           1,161
================================================================
Total params: 27,221
Trainable params: 27,221
Non-trainable params: 0
----------------------------------------------------------------
Input size (MB): 1.83
Forward/backward pass size (MB): 9.83
Params size (MB): 0.10
Estimated Total Size (MB): 11.76
----------------------------------------------------------------
None
  0%|       
…
